nohup: ignoring input
[2018-10-19 10:55:11,770 INFO] Loading train dataset from cfo/f20_data.train.1.pt, number of examples: 74534
[2018-10-19 10:55:39,540 INFO]  * vocabulary size. source = 50002; target = 50004
[2018-10-19 10:55:39,540 INFO] Building model...
[2018-10-19 10:55:51,882 INFO] NMTModel(
  (session_encoder): SessionEncoder(
    (items_embeddings): Embeddings(
      (make_embedding): Sequential(
        (emb_luts): Elementwise(
          (0): Embedding(530556, 100, padding_idx=0)
        )
      )
    )
    (user_log_embeddings): Embeddings(
      (make_embedding): Sequential(
        (emb_luts): Elementwise(
          (0): Embedding(3227314, 100, padding_idx=0)
        )
      )
    )
    (user_op_embeddings): Embeddings(
      (make_embedding): Sequential(
        (emb_luts): Elementwise(
          (0): Embedding(18, 100, padding_idx=0)
        )
      )
    )
    (user_site_cy_embeddings): Embeddings(
      (make_embedding): Sequential(
        (emb_luts): Elementwise(
          (0): Embedding(159, 100, padding_idx=0)
        )
      )
    )
    (user_site_pro_embeddings): Embeddings(
      (make_embedding): Sequential(
        (emb_luts): Elementwise(
          (0): Embedding(36, 100, padding_idx=0)
        )
      )
    )
    (user_site_ct_embeddings): Embeddings(
      (make_embedding): Sequential(
        (emb_luts): Elementwise(
          (0): Embedding(363, 100, padding_idx=0)
        )
      )
    )
    (gru_l): GRU(100, 100, batch_first=True)
    (gru_g): GRU(100, 100, batch_first=True)
    (atten_1): Linear(in_features=100, out_features=100, bias=True)
    (atten_2): Linear(in_features=100, out_features=100, bias=True)
    (bl): Linear(in_features=100, out_features=1, bias=True)
    (ctMB): MConnBlock(
      (MConn1): MConn(
        (linear1): Linear(in_features=700, out_features=200, bias=True)
        (linear2): Linear(in_features=200, out_features=200, bias=True)
        (linearw): Linear(in_features=700, out_features=200, bias=True)
      )
      (MConn6): MConn(
        (linear1): Linear(in_features=200, out_features=200, bias=True)
        (linear2): Linear(in_features=200, out_features=200, bias=True)
        (linearw): Linear(in_features=200, out_features=200, bias=True)
      )
      (MConn7): MConn(
        (linear1): Linear(in_features=200, out_features=200, bias=True)
        (linear2): Linear(in_features=200, out_features=100, bias=True)
        (linearw): Linear(in_features=200, out_features=100, bias=True)
      )
    )
    (ctTS): MConnBlock(
      (MConn1): MConn(
        (linear1): Linear(in_features=100, out_features=200, bias=True)
        (linear2): Linear(in_features=200, out_features=200, bias=True)
        (linearw): Linear(in_features=100, out_features=200, bias=True)
        (layer_norm): LayerNorm(torch.Size([1, 200]), eps=1e-05, elementwise_affine=True)
      )
      (MConn6): MConn(
        (linear1): Linear(in_features=200, out_features=200, bias=True)
        (linear2): Linear(in_features=200, out_features=200, bias=True)
        (linearw): Linear(in_features=200, out_features=200, bias=True)
        (layer_norm): LayerNorm(torch.Size([1, 200]), eps=1e-05, elementwise_affine=True)
      )
      (MConn7): MConn(
        (linear1): Linear(in_features=200, out_features=200, bias=True)
        (linear2): Linear(in_features=200, out_features=400, bias=True)
        (linearw): Linear(in_features=200, out_features=400, bias=True)
        (layer_norm): LayerNorm(torch.Size([1, 400]), eps=1e-05, elementwise_affine=True)
      )
    )
  )
  (encoder): RNNEncoder(
    (embeddings): Embeddings(
      (make_embedding): Sequential(
        (emb_luts): Elementwise(
          (0): Embedding(50002, 100, padding_idx=1)
        )
      )
    )
    (rnn): LSTM(100, 100, num_layers=2, dropout=0.3, bidirectional=True)
  )
  (decoder): InputFeedRNNDecoder(
    (embeddings): Embeddings(
      (make_embedding): Sequential(
        (emb_luts): Elementwise(
          (0): Embedding(50004, 100, padding_idx=1)
        )
      )
    )
    (dropout): Dropout(p=0.3)
    (rnn): StackedLSTM(
      (dropout): Dropout(p=0.3)
      (layers): ModuleList(
        (0): LSTMCell(300, 200)
        (1): LSTMCell(200, 200)
      )
    )
    (attn): GlobalAttention(
      (linear_in): Linear(in_features=200, out_features=200, bias=False)
      (linear_out): Linear(in_features=400, out_features=200, bias=False)
    )
    (copy_attn): GlobalAttention(
      (linear_in): Linear(in_features=200, out_features=200, bias=False)
      (linear_out): Linear(in_features=400, out_features=200, bias=False)
    )
  )
  (generator): CopyGenerator(
    (linear): Linear(in_features=200, out_features=50004, bias=True)
    (linear_copy): Linear(in_features=200, out_features=1, bias=True)
    (softmax): Softmax()
    (sigmoid): Sigmoid()
  )
)
[2018-10-19 10:55:51,884 INFO] encoder: 382314901
[2018-10-19 10:55:51,884 INFO] decoder: 16014605
[2018-10-19 10:55:51,884 INFO] * number of parameters: 398329506
[2018-10-19 10:55:51,885 INFO] Start training...
[2018-10-19 10:56:14,871 INFO] Loading train dataset from cfo/f20_data.train.1.pt, number of examples: 74534
…
